…
Downloading data from https://storage.googleapis.com/tensorflow/keras-applications/resnet/resnet50_weights_tf_dim_ordering_tf_kernels.h5








102967424/102967424 [==============================] - 18s 0us/step
Original ResNet-50
Model: "resnet50"
__________________________________________________________________________________________________
 Layer (type)                Output Shape                 Param #   Connected to
==================================================================================================
 input_1 (InputLayer)        [(None, 224, 224, 3)]        0         []
 conv1_pad (ZeroPadding2D)   (None, 230, 230, 3)          0         ['input_1[0][0]']
 conv1_conv (Conv2D)         (None, 112, 112, 64)         9472      ['conv1_pad[0][0]']
 conv1_bn (BatchNormalizati  (None, 112, 112, 64)         256       ['conv1_conv[0][0]']
 on)
 conv1_relu (Activation)     (None, 112, 112, 64)         0         ['conv1_bn[0][0]']
 pool1_pad (ZeroPadding2D)   (None, 114, 114, 64)         0         ['conv1_relu[0][0]']
 pool1_pool (MaxPooling2D)   (None, 56, 56, 64)           0         ['pool1_pad[0][0]']
 conv2_block1_1_conv (Conv2  (None, 56, 56, 64)           4160      ['pool1_pool[0][0]']
 D)
 conv2_block1_1_bn (BatchNo  (None, 56, 56, 64)           256       ['conv2_block1_1_conv[0][0]']
 rmalization)
 conv2_block1_1_relu (Activ  (None, 56, 56, 64)           0         ['conv2_block1_1_bn[0][0]']
 ation)
 conv2_block1_2_conv (Conv2  (None, 56, 56, 64)           36928     ['conv2_block1_1_relu[0][0]']
 D)
 conv2_block1_2_bn (BatchNo  (None, 56, 56, 64)           256       ['conv2_block1_2_conv[0][0]']
 rmalization)
 conv2_block1_2_relu (Activ  (None, 56, 56, 64)           0         ['conv2_block1_2_bn[0][0]']
 ation)
 conv2_block1_0_conv (Conv2  (None, 56, 56, 256)          16640     ['pool1_pool[0][0]']
 D)
 conv2_block1_3_conv (Conv2  (None, 56, 56, 256)          16640     ['conv2_block1_2_relu[0][0]']
 D)
 conv2_block1_0_bn (BatchNo  (None, 56, 56, 256)          1024      ['conv2_block1_0_conv[0][0]']
 rmalization)
 conv2_block1_3_bn (BatchNo  (None, 56, 56, 256)          1024      ['conv2_block1_3_conv[0][0]']
 rmalization)
 conv2_block1_add (Add)      (None, 56, 56, 256)          0         ['conv2_block1_0_bn[0][0]',
                                                                     'conv2_block1_3_bn[0][0]']
 conv2_block1_out (Activati  (None, 56, 56, 256)          0         ['conv2_block1_add[0][0]']
 on)
 conv2_block2_1_conv (Conv2  (None, 56, 56, 64)           16448     ['conv2_block1_out[0][0]']
 D)
 conv2_block2_1_bn (BatchNo  (None, 56, 56, 64)           256       ['conv2_block2_1_conv[0][0]']
 rmalization)
 conv2_block2_1_relu (Activ  (None, 56, 56, 64)           0         ['conv2_block2_1_bn[0][0]']
 ation)
 conv2_block2_2_conv (Conv2  (None, 56, 56, 64)           36928     ['conv2_block2_1_relu[0][0]']
 D)
 conv2_block2_2_bn (BatchNo  (None, 56, 56, 64)           256       ['conv2_block2_2_conv[0][0]']
 rmalization)
 conv2_block2_2_relu (Activ  (None, 56, 56, 64)           0         ['conv2_block2_2_bn[0][0]']
 ation)
 conv2_block2_3_conv (Conv2  (None, 56, 56, 256)          16640     ['conv2_block2_2_relu[0][0]']
 D)
 conv2_block2_3_bn (BatchNo  (None, 56, 56, 256)          1024      ['conv2_block2_3_conv[0][0]']
 rmalization)
 conv2_block2_add (Add)      (None, 56, 56, 256)          0         ['conv2_block1_out[0][0]',
                                                                     'conv2_block2_3_bn[0][0]']
 conv2_block2_out (Activati  (None, 56, 56, 256)          0         ['conv2_block2_add[0][0]']
 on)
 conv2_block3_1_conv (Conv2  (None, 56, 56, 64)           16448     ['conv2_block2_out[0][0]']
 D)
 conv2_block3_1_bn (BatchNo  (None, 56, 56, 64)           256       ['conv2_block3_1_conv[0][0]']
 rmalization)
 conv2_block3_1_relu (Activ  (None, 56, 56, 64)           0         ['conv2_block3_1_bn[0][0]']
 ation)
 conv2_block3_2_conv (Conv2  (None, 56, 56, 64)           36928     ['conv2_block3_1_relu[0][0]']
 D)
 conv2_block3_2_bn (BatchNo  (None, 56, 56, 64)           256       ['conv2_block3_2_conv[0][0]']
 rmalization)
 conv2_block3_2_relu (Activ  (None, 56, 56, 64)           0         ['conv2_block3_2_bn[0][0]']
 ation)
 conv2_block3_3_conv (Conv2  (None, 56, 56, 256)          16640     ['conv2_block3_2_relu[0][0]']
 D)
 conv2_block3_3_bn (BatchNo  (None, 56, 56, 256)          1024      ['conv2_block3_3_conv[0][0]']
 rmalization)
 conv2_block3_add (Add)      (None, 56, 56, 256)          0         ['conv2_block2_out[0][0]',
                                                                     'conv2_block3_3_bn[0][0]']
 conv2_block3_out (Activati  (None, 56, 56, 256)          0         ['conv2_block3_add[0][0]']
 on)
 conv3_block1_1_conv (Conv2  (None, 28, 28, 128)          32896     ['conv2_block3_out[0][0]']
 D)
 conv3_block1_1_bn (BatchNo  (None, 28, 28, 128)          512       ['conv3_block1_1_conv[0][0]']
 rmalization)
 conv3_block1_1_relu (Activ  (None, 28, 28, 128)          0         ['conv3_block1_1_bn[0][0]']
 ation)
 conv3_block1_2_conv (Conv2  (None, 28, 28, 128)          147584    ['conv3_block1_1_relu[0][0]']
 D)
 conv3_block1_2_bn (BatchNo  (None, 28, 28, 128)          512       ['conv3_block1_2_conv[0][0]']
 rmalization)
 conv3_block1_2_relu (Activ  (None, 28, 28, 128)          0         ['conv3_block1_2_bn[0][0]']
 ation)
 conv3_block1_0_conv (Conv2  (None, 28, 28, 512)          131584    ['conv2_block3_out[0][0]']
 D)
 conv3_block1_3_conv (Conv2  (None, 28, 28, 512)          66048     ['conv3_block1_2_relu[0][0]']
 D)
 conv3_block1_0_bn (BatchNo  (None, 28, 28, 512)          2048      ['conv3_block1_0_conv[0][0]']
 rmalization)
 conv3_block1_3_bn (BatchNo  (None, 28, 28, 512)          2048      ['conv3_block1_3_conv[0][0]']
 rmalization)
 conv3_block1_add (Add)      (None, 28, 28, 512)          0         ['conv3_block1_0_bn[0][0]',
                                                                     'conv3_block1_3_bn[0][0]']
 conv3_block1_out (Activati  (None, 28, 28, 512)          0         ['conv3_block1_add[0][0]']
 on)
 conv3_block2_1_conv (Conv2  (None, 28, 28, 128)          65664     ['conv3_block1_out[0][0]']
 D)
 conv3_block2_1_bn (BatchNo  (None, 28, 28, 128)          512       ['conv3_block2_1_conv[0][0]']
 rmalization)
 conv3_block2_1_relu (Activ  (None, 28, 28, 128)          0         ['conv3_block2_1_bn[0][0]']
 ation)
 conv3_block2_2_conv (Conv2  (None, 28, 28, 128)          147584    ['conv3_block2_1_relu[0][0]']
 D)
 conv3_block2_2_bn (BatchNo  (None, 28, 28, 128)          512       ['conv3_block2_2_conv[0][0]']
 rmalization)
 conv3_block2_2_relu (Activ  (None, 28, 28, 128)          0         ['conv3_block2_2_bn[0][0]']
 ation)
 conv3_block2_3_conv (Conv2  (None, 28, 28, 512)          66048     ['conv3_block2_2_relu[0][0]']
 D)
 conv3_block2_3_bn (BatchNo  (None, 28, 28, 512)          2048      ['conv3_block2_3_conv[0][0]']
 rmalization)
 conv3_block2_add (Add)      (None, 28, 28, 512)          0         ['conv3_block1_out[0][0]',
                                                                     'conv3_block2_3_bn[0][0]']
 conv3_block2_out (Activati  (None, 28, 28, 512)          0         ['conv3_block2_add[0][0]']
 on)
 conv3_block3_1_conv (Conv2  (None, 28, 28, 128)          65664     ['conv3_block2_out[0][0]']
 D)
 conv3_block3_1_bn (BatchNo  (None, 28, 28, 128)          512       ['conv3_block3_1_conv[0][0]']
 rmalization)
 conv3_block3_1_relu (Activ  (None, 28, 28, 128)          0         ['conv3_block3_1_bn[0][0]']
 ation)
 conv3_block3_2_conv (Conv2  (None, 28, 28, 128)          147584    ['conv3_block3_1_relu[0][0]']
 D)
 conv3_block3_2_bn (BatchNo  (None, 28, 28, 128)          512       ['conv3_block3_2_conv[0][0]']
 rmalization)
 conv3_block3_2_relu (Activ  (None, 28, 28, 128)          0         ['conv3_block3_2_bn[0][0]']
 ation)
 conv3_block3_3_conv (Conv2  (None, 28, 28, 512)          66048     ['conv3_block3_2_relu[0][0]']
 D)
 conv3_block3_3_bn (BatchNo  (None, 28, 28, 512)          2048      ['conv3_block3_3_conv[0][0]']
 rmalization)
 conv3_block3_add (Add)      (None, 28, 28, 512)          0         ['conv3_block2_out[0][0]',
                                                                     'conv3_block3_3_bn[0][0]']
 conv3_block3_out (Activati  (None, 28, 28, 512)          0         ['conv3_block3_add[0][0]']
 on)
 conv3_block4_1_conv (Conv2  (None, 28, 28, 128)          65664     ['conv3_block3_out[0][0]']
 D)
 conv3_block4_1_bn (BatchNo  (None, 28, 28, 128)          512       ['conv3_block4_1_conv[0][0]']
 rmalization)
 conv3_block4_1_relu (Activ  (None, 28, 28, 128)          0         ['conv3_block4_1_bn[0][0]']
 ation)
 conv3_block4_2_conv (Conv2  (None, 28, 28, 128)          147584    ['conv3_block4_1_relu[0][0]']
 D)
 conv3_block4_2_bn (BatchNo  (None, 28, 28, 128)          512       ['conv3_block4_2_conv[0][0]']
 rmalization)
 conv3_block4_2_relu (Activ  (None, 28, 28, 128)          0         ['conv3_block4_2_bn[0][0]']
 ation)
 conv3_block4_3_conv (Conv2  (None, 28, 28, 512)          66048     ['conv3_block4_2_relu[0][0]']
 D)
 conv3_block4_3_bn (BatchNo  (None, 28, 28, 512)          2048      ['conv3_block4_3_conv[0][0]']
 rmalization)
 conv3_block4_add (Add)      (None, 28, 28, 512)          0         ['conv3_block3_out[0][0]',
                                                                     'conv3_block4_3_bn[0][0]']
 conv3_block4_out (Activati  (None, 28, 28, 512)          0         ['conv3_block4_add[0][0]']
 on)
 conv4_block1_1_conv (Conv2  (None, 14, 14, 256)          131328    ['conv3_block4_out[0][0]']
 D)
 conv4_block1_1_bn (BatchNo  (None, 14, 14, 256)          1024      ['conv4_block1_1_conv[0][0]']
 rmalization)
 conv4_block1_1_relu (Activ  (None, 14, 14, 256)          0         ['conv4_block1_1_bn[0][0]']
 ation)
 conv4_block1_2_conv (Conv2  (None, 14, 14, 256)          590080    ['conv4_block1_1_relu[0][0]']
 D)
 conv4_block1_2_bn (BatchNo  (None, 14, 14, 256)          1024      ['conv4_block1_2_conv[0][0]']
 rmalization)
 conv4_block1_2_relu (Activ  (None, 14, 14, 256)          0         ['conv4_block1_2_bn[0][0]']
 ation)
 conv4_block1_0_conv (Conv2  (None, 14, 14, 1024)         525312    ['conv3_block4_out[0][0]']
 D)
 conv4_block1_3_conv (Conv2  (None, 14, 14, 1024)         263168    ['conv4_block1_2_relu[0][0]']
 D)
 conv4_block1_0_bn (BatchNo  (None, 14, 14, 1024)         4096      ['conv4_block1_0_conv[0][0]']
 rmalization)
 conv5_block2_3_conv (Conv2  (None, 7, 7, 2048)           1050624   ['conv5_block2_2_relu[0][0]']
 D)
 conv5_block2_3_bn (BatchNo  (None, 7, 7, 2048)           8192      ['conv5_block2_3_conv[0][0]']
 rmalization)
 conv5_block2_add (Add)      (None, 7, 7, 2048)           0         ['conv5_block1_out[0][0]',
                                                                     'conv5_block2_3_bn[0][0]']
 conv5_block2_out (Activati  (None, 7, 7, 2048)           0         ['conv5_block2_add[0][0]']
 on)
 conv5_block3_1_conv (Conv2  (None, 7, 7, 512)            1049088   ['conv5_block2_out[0][0]']
 D)
 conv5_block3_1_bn (BatchNo  (None, 7, 7, 512)            2048      ['conv5_block3_1_conv[0][0]']
 rmalization)
 conv5_block3_1_relu (Activ  (None, 7, 7, 512)            0         ['conv5_block3_1_bn[0][0]']
 ation)
 conv5_block3_2_conv (Conv2  (None, 7, 7, 512)            2359808   ['conv5_block3_1_relu[0][0]']
 D)
 conv5_block3_2_bn (BatchNo  (None, 7, 7, 512)            2048      ['conv5_block3_2_conv[0][0]']
 rmalization)
 conv5_block3_2_relu (Activ  (None, 7, 7, 512)            0         ['conv5_block3_2_bn[0][0]']
 ation)
 conv5_block3_3_conv (Conv2  (None, 7, 7, 2048)           1050624   ['conv5_block3_2_relu[0][0]']
 D)
 conv5_block3_3_bn (BatchNo  (None, 7, 7, 2048)           8192      ['conv5_block3_3_conv[0][0]']
 rmalization)
 conv5_block3_add (Add)      (None, 7, 7, 2048)           0         ['conv5_block2_out[0][0]',
                                                                     'conv5_block3_3_bn[0][0]']
 conv5_block3_out (Activati  (None, 7, 7, 2048)           0         ['conv5_block3_add[0][0]']
 on)
 avg_pool (GlobalAveragePoo  (None, 2048)                 0         ['conv5_block3_out[0][0]']
 ling2D)
 predictions (Dense)         (None, 1000)                 2049000   ['avg_pool[0][0]']
==================================================================================================
Total params: 25636712 (97.80 MB)
Trainable params: 25583592 (97.59 MB)
Non-trainable params: 53120 (207.50 KB)
__________________________________________________________________________________________________
ResNet-50 without last layer
Model: "model"
__________________________________________________________________________________________________
 Layer (type)                Output Shape                 Param #   Connected to
==================================================================================================
 input_1 (InputLayer)        [(None, 224, 224, 3)]        0         []
 conv1_pad (ZeroPadding2D)   (None, 230, 230, 3)          0         ['input_1[0][0]']
 conv1_conv (Conv2D)         (None, 112, 112, 64)         9472      ['conv1_pad[0][0]']
 conv1_bn (BatchNormalizati  (None, 112, 112, 64)         256       ['conv1_conv[0][0]']
 on)
 conv1_relu (Activation)     (None, 112, 112, 64)         0         ['conv1_bn[0][0]']
 pool1_pad (ZeroPadding2D)   (None, 114, 114, 64)         0         ['conv1_relu[0][0]']
 pool1_pool (MaxPooling2D)   (None, 56, 56, 64)           0         ['pool1_pad[0][0]']
 conv2_block1_1_conv (Conv2  (None, 56, 56, 64)           4160      ['pool1_pool[0][0]']
 D)
 conv2_block1_1_bn (BatchNo  (None, 56, 56, 64)           256       ['conv2_block1_1_conv[0][0]']
 rmalization)
 conv2_block1_1_relu (Activ  (None, 56, 56, 64)           0         ['conv2_block1_1_bn[0][0]']
 ation)
 conv2_block1_2_conv (Conv2  (None, 56, 56, 64)           36928     ['conv2_block1_1_relu[0][0]']
 D)
 conv2_block1_2_bn (BatchNo  (None, 56, 56, 64)           256       ['conv2_block1_2_conv[0][0]']
 rmalization)
 conv2_block1_2_relu (Activ  (None, 56, 56, 64)           0         ['conv2_block1_2_bn[0][0]']
 ation)
 conv2_block1_0_conv (Conv2  (None, 56, 56, 256)          16640     ['pool1_pool[0][0]']
 D)
 conv2_block1_3_conv (Conv2  (None, 56, 56, 256)          16640     ['conv2_block1_2_relu[0][0]']
 D)
 conv2_block1_0_bn (BatchNo  (None, 56, 56, 256)          1024      ['conv2_block1_0_conv[0][0]']
 rmalization)
 conv2_block1_3_bn (BatchNo  (None, 56, 56, 256)          1024      ['conv2_block1_3_conv[0][0]']
 rmalization)
 conv2_block1_add (Add)      (None, 56, 56, 256)          0         ['conv2_block1_0_bn[0][0]',
                                                                     'conv2_block1_3_bn[0][0]']
 conv2_block1_out (Activati  (None, 56, 56, 256)          0         ['conv2_block1_add[0][0]']
 on)
 conv2_block2_1_conv (Conv2  (None, 56, 56, 64)           16448     ['conv2_block1_out[0][0]']
 D)
 conv2_block2_1_bn (BatchNo  (None, 56, 56, 64)           256       ['conv2_block2_1_conv[0][0]']
 rmalization)
 conv2_block2_1_relu (Activ  (None, 56, 56, 64)           0         ['conv2_block2_1_bn[0][0]']
 ation)
 conv2_block2_2_conv (Conv2  (None, 56, 56, 64)           36928     ['conv2_block2_1_relu[0][0]']
 D)
 conv2_block2_2_bn (BatchNo  (None, 56, 56, 64)           256       ['conv2_block2_2_conv[0][0]']
 rmalization)
 conv2_block2_2_relu (Activ  (None, 56, 56, 64)           0         ['conv2_block2_2_bn[0][0]']
 ation)
 conv2_block2_3_conv (Conv2  (None, 56, 56, 256)          16640     ['conv2_block2_2_relu[0][0]']
 D)
 conv2_block2_3_bn (BatchNo  (None, 56, 56, 256)          1024      ['conv2_block2_3_conv[0][0]']
 rmalization)
 conv2_block2_add (Add)      (None, 56, 56, 256)          0         ['conv2_block1_out[0][0]',
                                                                     'conv2_block2_3_bn[0][0]']
 conv2_block2_out (Activati  (None, 56, 56, 256)          0         ['conv2_block2_add[0][0]']
 on)
 conv2_block3_1_conv (Conv2  (None, 56, 56, 64)           16448     ['conv2_block2_out[0][0]']
 D)
 conv2_block3_1_bn (BatchNo  (None, 56, 56, 64)           256       ['conv2_block3_1_conv[0][0]']
 rmalization)
 conv2_block3_1_relu (Activ  (None, 56, 56, 64)           0         ['conv2_block3_1_bn[0][0]']
 ation)
 conv2_block3_2_conv (Conv2  (None, 56, 56, 64)           36928     ['conv2_block3_1_relu[0][0]']
 D)
 conv2_block3_2_bn (BatchNo  (None, 56, 56, 64)           256       ['conv2_block3_2_conv[0][0]']
 rmalization)
 conv2_block3_2_relu (Activ  (None, 56, 56, 64)           0         ['conv2_block3_2_bn[0][0]']
 ation)
 conv2_block3_3_conv (Conv2  (None, 56, 56, 256)          16640     ['conv2_block3_2_relu[0][0]']
 D)
 conv2_block3_3_bn (BatchNo  (None, 56, 56, 256)          1024      ['conv2_block3_3_conv[0][0]']
 rmalization)
 conv2_block3_add (Add)      (None, 56, 56, 256)          0         ['conv2_block2_out[0][0]',
                                                                     'conv2_block3_3_bn[0][0]']
 conv2_block3_out (Activati  (None, 56, 56, 256)          0         ['conv2_block3_add[0][0]']
 on)
 conv3_block1_1_conv (Conv2  (None, 28, 28, 128)          32896     ['conv2_block3_out[0][0]']
 D)
 conv3_block1_1_bn (BatchNo  (None, 28, 28, 128)          512       ['conv3_block1_1_conv[0][0]']
 rmalization)
 conv3_block1_1_relu (Activ  (None, 28, 28, 128)          0         ['conv3_block1_1_bn[0][0]']
 ation)
 conv3_block1_2_conv (Conv2  (None, 28, 28, 128)          147584    ['conv3_block1_1_relu[0][0]']
 D)
 conv3_block1_2_bn (BatchNo  (None, 28, 28, 128)          512       ['conv3_block1_2_conv[0][0]']
 rmalization)
 conv3_block1_2_relu (Activ  (None, 28, 28, 128)          0         ['conv3_block1_2_bn[0][0]']
 ation)
 conv3_block1_0_conv (Conv2  (None, 28, 28, 512)          131584    ['conv2_block3_out[0][0]']
 D)
 conv3_block1_3_conv (Conv2  (None, 28, 28, 512)          66048     ['conv3_block1_2_relu[0][0]']
 D)
 conv3_block1_0_bn (BatchNo  (None, 28, 28, 512)          2048      ['conv3_block1_0_conv[0][0]']
 rmalization)
 conv3_block1_3_bn (BatchNo  (None, 28, 28, 512)          2048      ['conv3_block1_3_conv[0][0]']
 rmalization)
 conv3_block1_add (Add)      (None, 28, 28, 512)          0         ['conv3_block1_0_bn[0][0]',
                                                                     'conv3_block1_3_bn[0][0]']
 conv3_block1_out (Activati  (None, 28, 28, 512)          0         ['conv3_block1_add[0][0]']
 on)
 conv3_block2_1_conv (Conv2  (None, 28, 28, 128)          65664     ['conv3_block1_out[0][0]']
 D)
 conv3_block2_1_bn (BatchNo  (None, 28, 28, 128)          512       ['conv3_block2_1_conv[0][0]']
 rmalization)
 conv3_block2_1_relu (Activ  (None, 28, 28, 128)          0         ['conv3_block2_1_bn[0][0]']
 ation)
 conv3_block2_2_conv (Conv2  (None, 28, 28, 128)          147584    ['conv3_block2_1_relu[0][0]']
 D)
 conv3_block2_2_bn (BatchNo  (None, 28, 28, 128)          512       ['conv3_block2_2_conv[0][0]']
 rmalization)
 conv3_block2_2_relu (Activ  (None, 28, 28, 128)          0         ['conv3_block2_2_bn[0][0]']
 ation)
 conv3_block2_3_conv (Conv2  (None, 28, 28, 512)          66048     ['conv3_block2_2_relu[0][0]']
 D)
 conv3_block2_3_bn (BatchNo  (None, 28, 28, 512)          2048      ['conv3_block2_3_conv[0][0]']
 rmalization)
 conv3_block2_add (Add)      (None, 28, 28, 512)          0         ['conv3_block1_out[0][0]',
                                                                     'conv3_block2_3_bn[0][0]']
 conv3_block2_out (Activati  (None, 28, 28, 512)          0         ['conv3_block2_add[0][0]']
 on)
 conv3_block3_1_conv (Conv2  (None, 28, 28, 128)          65664     ['conv3_block2_out[0][0]']
 D)
 conv3_block3_1_bn (BatchNo  (None, 28, 28, 128)          512       ['conv3_block3_1_conv[0][0]']
 rmalization)
 conv3_block3_1_relu (Activ  (None, 28, 28, 128)          0         ['conv3_block3_1_bn[0][0]']
 ation)
 conv3_block3_2_conv (Conv2  (None, 28, 28, 128)          147584    ['conv3_block3_1_relu[0][0]']
 D)
 conv3_block3_2_bn (BatchNo  (None, 28, 28, 128)          512       ['conv3_block3_2_conv[0][0]']
 rmalization)
 conv3_block3_2_relu (Activ  (None, 28, 28, 128)          0         ['conv3_block3_2_bn[0][0]']
 ation)
 conv3_block3_3_conv (Conv2  (None, 28, 28, 512)          66048     ['conv3_block3_2_relu[0][0]']
 D)
 conv3_block3_3_bn (BatchNo  (None, 28, 28, 512)          2048      ['conv3_block3_3_conv[0][0]']
 rmalization)
 conv3_block3_add (Add)      (None, 28, 28, 512)          0         ['conv3_block2_out[0][0]',
                                                                     'conv3_block3_3_bn[0][0]']
 conv3_block3_out (Activati  (None, 28, 28, 512)          0         ['conv3_block3_add[0][0]']
 on)
 conv3_block4_1_conv (Conv2  (None, 28, 28, 128)          65664     ['conv3_block3_out[0][0]']
 D)
 conv3_block4_1_bn (BatchNo  (None, 28, 28, 128)          512       ['conv3_block4_1_conv[0][0]']
 rmalization)
 conv3_block4_1_relu (Activ  (None, 28, 28, 128)          0         ['conv3_block4_1_bn[0][0]']
 ation)
 conv3_block4_2_conv (Conv2  (None, 28, 28, 128)          147584    ['conv3_block4_1_relu[0][0]']
 D)
 conv3_block4_2_bn (BatchNo  (None, 28, 28, 128)          512       ['conv3_block4_2_conv[0][0]']
 rmalization)
 conv3_block4_2_relu (Activ  (None, 28, 28, 128)          0         ['conv3_block4_2_bn[0][0]']
 ation)
 conv3_block4_3_conv (Conv2  (None, 28, 28, 512)          66048     ['conv3_block4_2_relu[0][0]']
 D)
 conv3_block4_3_bn (BatchNo  (None, 28, 28, 512)          2048      ['conv3_block4_3_conv[0][0]']
 rmalization)
 conv3_block4_add (Add)      (None, 28, 28, 512)          0         ['conv3_block3_out[0][0]',
                                                                     'conv3_block4_3_bn[0][0]']
 conv3_block4_out (Activati  (None, 28, 28, 512)          0         ['conv3_block4_add[0][0]']
 on)
 conv4_block1_1_conv (Conv2  (None, 14, 14, 256)          131328    ['conv3_block4_out[0][0]']
 D)
 conv4_block1_1_bn (BatchNo  (None, 14, 14, 256)          1024      ['conv4_block1_1_conv[0][0]']
 rmalization)
 conv4_block1_1_relu (Activ  (None, 14, 14, 256)          0         ['conv4_block1_1_bn[0][0]']
 ation)
 conv4_block1_2_conv (Conv2  (None, 14, 14, 256)          590080    ['conv4_block1_1_relu[0][0]']
 D)
 conv4_block1_2_bn (BatchNo  (None, 14, 14, 256)          1024      ['conv4_block1_2_conv[0][0]']
 rmalization)
 conv4_block1_2_relu (Activ  (None, 14, 14, 256)          0         ['conv4_block1_2_bn[0][0]']
 ation)
 conv4_block1_0_conv (Conv2  (None, 14, 14, 1024)         525312    ['conv3_block4_out[0][0]']
 D)
 conv4_block1_3_conv (Conv2  (None, 14, 14, 1024)         263168    ['conv4_block1_2_relu[0][0]']
 D)
 conv4_block1_0_bn (BatchNo  (None, 14, 14, 1024)         4096      ['conv4_block1_0_conv[0][0]']
 rmalization)
 conv4_block1_3_bn (BatchNo  (None, 14, 14, 1024)         4096      ['conv4_block1_3_conv[0][0]']
 rmalization)
 conv4_block1_add (Add)      (None, 14, 14, 1024)         0         ['conv4_block1_0_bn[0][0]',
                                                                     'conv4_block1_3_bn[0][0]']
 conv4_block1_out (Activati  (None, 14, 14, 1024)         0         ['conv4_block1_add[0][0]']
 on)
 conv4_block2_1_conv (Conv2  (None, 14, 14, 256)          262400    ['conv4_block1_out[0][0]']
 D)
 conv4_block2_1_bn (BatchNo  (None, 14, 14, 256)          1024      ['conv4_block2_1_conv[0][0]']
 rmalization)
 conv4_block2_1_relu (Activ  (None, 14, 14, 256)          0         ['conv4_block2_1_bn[0][0]']
 ation)
 conv4_block2_2_conv (Conv2  (None, 14, 14, 256)          590080    ['conv4_block2_1_relu[0][0]']
 D)
 conv4_block2_2_bn (BatchNo  (None, 14, 14, 256)          1024      ['conv4_block2_2_conv[0][0]']
 rmalization)
 conv4_block2_2_relu (Activ  (None, 14, 14, 256)          0         ['conv4_block2_2_bn[0][0]']
 ation)
 conv4_block2_3_conv (Conv2  (None, 14, 14, 1024)         263168    ['conv4_block2_2_relu[0][0]']
 D)
 conv4_block2_3_bn (BatchNo  (None, 14, 14, 1024)         4096      ['conv4_block2_3_conv[0][0]']
 rmalization)
 conv4_block2_add (Add)      (None, 14, 14, 1024)         0         ['conv4_block1_out[0][0]',
                                                                     'conv4_block2_3_bn[0][0]']
 conv4_block2_out (Activati  (None, 14, 14, 1024)         0         ['conv4_block2_add[0][0]']
 on)
 conv4_block3_1_conv (Conv2  (None, 14, 14, 256)          262400    ['conv4_block2_out[0][0]']
 D)
 conv4_block3_1_bn (BatchNo  (None, 14, 14, 256)          1024      ['conv4_block3_1_conv[0][0]']
 rmalization)
 conv4_block3_1_relu (Activ  (None, 14, 14, 256)          0         ['conv4_block3_1_bn[0][0]']
 ation)
 conv4_block3_2_conv (Conv2  (None, 14, 14, 256)          590080    ['conv4_block3_1_relu[0][0]']
 D)
 conv4_block3_2_bn (BatchNo  (None, 14, 14, 256)          1024      ['conv4_block3_2_conv[0][0]']
 rmalization)
 conv4_block3_2_relu (Activ  (None, 14, 14, 256)          0         ['conv4_block3_2_bn[0][0]']
 ation)
 conv4_block3_3_conv (Conv2  (None, 14, 14, 1024)         263168    ['conv4_block3_2_relu[0][0]']
 D)
 conv4_block3_3_bn (BatchNo  (None, 14, 14, 1024)         4096      ['conv4_block3_3_conv[0][0]']
 rmalization)
 conv4_block3_add (Add)      (None, 14, 14, 1024)         0         ['conv4_block2_out[0][0]',
                                                                     'conv4_block3_3_bn[0][0]']
 conv4_block3_out (Activati  (None, 14, 14, 1024)         0         ['conv4_block3_add[0][0]']
 on)
 conv4_block4_1_conv (Conv2  (None, 14, 14, 256)          262400    ['conv4_block3_out[0][0]']
 D)
 conv4_block4_1_bn (BatchNo  (None, 14, 14, 256)          1024      ['conv4_block4_1_conv[0][0]']
 rmalization)
 conv4_block4_1_relu (Activ  (None, 14, 14, 256)          0         ['conv4_block4_1_bn[0][0]']
 ation)
 conv4_block4_2_conv (Conv2  (None, 14, 14, 256)          590080    ['conv4_block4_1_relu[0][0]']
 D)
 conv4_block4_2_bn (BatchNo  (None, 14, 14, 256)          1024      ['conv4_block4_2_conv[0][0]']
 rmalization)
 conv4_block4_2_relu (Activ  (None, 14, 14, 256)          0         ['conv4_block4_2_bn[0][0]']
 ation)
 conv4_block4_3_conv (Conv2  (None, 14, 14, 1024)         263168    ['conv4_block4_2_relu[0][0]']
 D)
 conv4_block4_3_bn (BatchNo  (None, 14, 14, 1024)         4096      ['conv4_block4_3_conv[0][0]']
 rmalization)
 conv4_block4_add (Add)      (None, 14, 14, 1024)         0         ['conv4_block3_out[0][0]',
                                                                     'conv4_block4_3_bn[0][0]']
 conv4_block4_out (Activati  (None, 14, 14, 1024)         0         ['conv4_block4_add[0][0]']
 on)
 conv4_block5_1_conv (Conv2  (None, 14, 14, 256)          262400    ['conv4_block4_out[0][0]']
 D)
 conv4_block5_1_bn (BatchNo  (None, 14, 14, 256)          1024      ['conv4_block5_1_conv[0][0]']
 rmalization)
 conv4_block5_1_relu (Activ  (None, 14, 14, 256)          0         ['conv4_block5_1_bn[0][0]']
 ation)
 conv4_block5_2_conv (Conv2  (None, 14, 14, 256)          590080    ['conv4_block5_1_relu[0][0]']
 D)
 conv4_block5_2_bn (BatchNo  (None, 14, 14, 256)          1024      ['conv4_block5_2_conv[0][0]']
 rmalization)
 conv4_block5_2_relu (Activ  (None, 14, 14, 256)          0         ['conv4_block5_2_bn[0][0]']
 ation)
 conv4_block5_3_conv (Conv2  (None, 14, 14, 1024)         263168    ['conv4_block5_2_relu[0][0]']
 D)
 conv4_block5_3_bn (BatchNo  (None, 14, 14, 1024)         4096      ['conv4_block5_3_conv[0][0]']
 rmalization)
 conv4_block5_add (Add)      (None, 14, 14, 1024)         0         ['conv4_block4_out[0][0]',
                                                                     'conv4_block5_3_bn[0][0]']
 conv4_block5_out (Activati  (None, 14, 14, 1024)         0         ['conv4_block5_add[0][0]']
 on)
 conv4_block6_1_conv (Conv2  (None, 14, 14, 256)          262400    ['conv4_block5_out[0][0]']
 D)
 conv4_block6_1_bn (BatchNo  (None, 14, 14, 256)          1024      ['conv4_block6_1_conv[0][0]']
 rmalization)
 conv4_block6_1_relu (Activ  (None, 14, 14, 256)          0         ['conv4_block6_1_bn[0][0]']
 ation)
 conv4_block6_2_conv (Conv2  (None, 14, 14, 256)          590080    ['conv4_block6_1_relu[0][0]']
 D)
 conv4_block6_2_bn (BatchNo  (None, 14, 14, 256)          1024      ['conv4_block6_2_conv[0][0]']
 rmalization)
 conv4_block6_2_relu (Activ  (None, 14, 14, 256)          0         ['conv4_block6_2_bn[0][0]']
 ation)
 conv4_block6_3_conv (Conv2  (None, 14, 14, 1024)         263168    ['conv4_block6_2_relu[0][0]']
 D)
 conv4_block6_3_bn (BatchNo  (None, 14, 14, 1024)         4096      ['conv4_block6_3_conv[0][0]']
 rmalization)
 conv4_block6_add (Add)      (None, 14, 14, 1024)         0         ['conv4_block5_out[0][0]',
                                                                     'conv4_block6_3_bn[0][0]']
 conv4_block6_out (Activati  (None, 14, 14, 1024)         0         ['conv4_block6_add[0][0]']
 on)
 conv5_block1_1_conv (Conv2  (None, 7, 7, 512)            524800    ['conv4_block6_out[0][0]']
 D)
 conv5_block1_1_bn (BatchNo  (None, 7, 7, 512)            2048      ['conv5_block1_1_conv[0][0]']
 rmalization)
 conv5_block1_1_relu (Activ  (None, 7, 7, 512)            0         ['conv5_block1_1_bn[0][0]']
 ation)
 conv5_block1_2_conv (Conv2  (None, 7, 7, 512)            2359808   ['conv5_block1_1_relu[0][0]']
 D)
 conv5_block1_2_bn (BatchNo  (None, 7, 7, 512)            2048      ['conv5_block1_2_conv[0][0]']
 rmalization)
 conv5_block1_2_relu (Activ  (None, 7, 7, 512)            0         ['conv5_block1_2_bn[0][0]']
 ation)
 conv5_block1_0_conv (Conv2  (None, 7, 7, 2048)           2099200   ['conv4_block6_out[0][0]']
 D)
 conv5_block1_3_conv (Conv2  (None, 7, 7, 2048)           1050624   ['conv5_block1_2_relu[0][0]']
 D)
 conv5_block1_0_bn (BatchNo  (None, 7, 7, 2048)           8192      ['conv5_block1_0_conv[0][0]']
 rmalization)
 conv5_block1_3_bn (BatchNo  (None, 7, 7, 2048)           8192      ['conv5_block1_3_conv[0][0]']
 rmalization)
 conv5_block1_add (Add)      (None, 7, 7, 2048)           0         ['conv5_block1_0_bn[0][0]',
                                                                     'conv5_block1_3_bn[0][0]']
 conv5_block1_out (Activati  (None, 7, 7, 2048)           0         ['conv5_block1_add[0][0]']
 on)
 conv5_block2_1_conv (Conv2  (None, 7, 7, 512)            1049088   ['conv5_block1_out[0][0]']
 D)
 conv5_block2_1_bn (BatchNo  (None, 7, 7, 512)            2048      ['conv5_block2_1_conv[0][0]']
 rmalization)
 conv5_block2_1_relu (Activ  (None, 7, 7, 512)            0         ['conv5_block2_1_bn[0][0]']
 ation)
 conv5_block2_2_conv (Conv2  (None, 7, 7, 512)            2359808   ['conv5_block2_1_relu[0][0]']
 D)
 conv5_block2_2_bn (BatchNo  (None, 7, 7, 512)            2048      ['conv5_block2_2_conv[0][0]']
 rmalization)
 conv5_block2_2_relu (Activ  (None, 7, 7, 512)            0         ['conv5_block2_2_bn[0][0]']
 ation)
 conv5_block2_3_conv (Conv2  (None, 7, 7, 2048)           1050624   ['conv5_block2_2_relu[0][0]']
 D)
 conv5_block2_3_bn (BatchNo  (None, 7, 7, 2048)           8192      ['conv5_block2_3_conv[0][0]']
 rmalization)
 conv5_block2_add (Add)      (None, 7, 7, 2048)           0         ['conv5_block1_out[0][0]',
                                                                     'conv5_block2_3_bn[0][0]']
 conv5_block2_out (Activati  (None, 7, 7, 2048)           0         ['conv5_block2_add[0][0]']
 on)
 conv5_block3_1_conv (Conv2  (None, 7, 7, 512)            1049088   ['conv5_block2_out[0][0]']
 D)
 conv5_block3_1_bn (BatchNo  (None, 7, 7, 512)            2048      ['conv5_block3_1_conv[0][0]']
 rmalization)
 conv5_block3_1_relu (Activ  (None, 7, 7, 512)            0         ['conv5_block3_1_bn[0][0]']
 ation)
 conv5_block3_2_conv (Conv2  (None, 7, 7, 512)            2359808   ['conv5_block3_1_relu[0][0]']
 D)
 conv5_block3_2_bn (BatchNo  (None, 7, 7, 512)            2048      ['conv5_block3_2_conv[0][0]']
 rmalization)
 conv5_block3_2_relu (Activ  (None, 7, 7, 512)            0         ['conv5_block3_2_bn[0][0]']
 ation)
 conv5_block3_3_conv (Conv2  (None, 7, 7, 2048)           1050624   ['conv5_block3_2_relu[0][0]']
 D)
 conv5_block3_3_bn (BatchNo  (None, 7, 7, 2048)           8192      ['conv5_block3_3_conv[0][0]']
 rmalization)
 conv5_block3_add (Add)      (None, 7, 7, 2048)           0         ['conv5_block2_out[0][0]',
                                                                     'conv5_block3_3_bn[0][0]']
 conv5_block3_out (Activati  (None, 7, 7, 2048)           0         ['conv5_block3_add[0][0]']
 on)
 avg_pool (GlobalAveragePoo  (None, 2048)                 0         ['conv5_block3_out[0][0]']
 ling2D)
==================================================================================================
Total params: 23587712 (89.98 MB)
Trainable params: 23534592 (89.78 MB)
Non-trainable params: 53120 (207.50 KB)
__________________________________________________________________________________________________
Traceback (most recent call last):
  File "C:\Users\flora\OneDrive\Documentos\MESTRADO_UFSC\rotinas\python\ml-class\my_data\transfer_learning_mydata.py", line 130, in <module>
…
