…
[34m[1mwandb[39m[22m: [33mWARNING[39m The data_type argument of wandb.keras.WandbCallback is deprecated and will be removed in a future release. Please use input_type instead.
[34m[1mwandb[39m[22m: [33mWARNING[39m Setting input_type = data_type.
WARNING:tensorflow:From C:\Users\flora\OneDrive\Documentos\MESTRADO_UFSC\rotinas\python\MESTRA\Lib\site-packages\keras\src\utils\tf_utils.py:492: The name tf.ragged.RaggedTensorValue is deprecated. Please use tf.compat.v1.ragged.RaggedTensorValue instead.
Model: "sequential"
_________________________________________________________________
 Layer (type)                Output Shape              Param #
=================================================================
 conv2d (Conv2D)             (None, 192, 192, 32)      896
 max_pooling2d (MaxPooling2  (None, 96, 96, 32)        0
 D)
 flatten (Flatten)           (None, 294912)            0
 dropout (Dropout)           (None, 294912)            0
 dense (Dense)               (None, 2)                 589826
 dropout_1 (Dropout)         (None, 2)                 0
 dense_1 (Dense)             (None, 2)                 6
=================================================================
Total params: 590728 (2.25 MB)
Trainable params: 590728 (2.25 MB)
Non-trainable params: 0 (0.00 Byte)
_________________________________________________________________
Epoch 1/10
WARNING:tensorflow:From C:\Users\flora\OneDrive\Documentos\MESTRADO_UFSC\rotinas\python\MESTRA\Lib\site-packages\keras\src\engine\base_layer_utils.py:384: The name tf.executing_eagerly_outside_functions is deprecated. Please use tf.compat.v1.executing_eagerly_outside_functions instead.
…
